…
wandb: Run data is saved locally in /jet/home/sashok/Introduction-to-Deep-Learning-11785-Homeworks/HW4/IDL-HW4/wandb/run-20251113_015438-slaawrp7
wandb: Run `wandb offline` to turn off syncing.
wandb: Syncing run add_run_name
wandb: ⭐️ View project at https://wandb.ai/sashok2-carnegie-mellon-university/HW4P2
wandb: 🚀 View run at https://wandb.ai/sashok2-carnegie-mellon-university/HW4P2/runs/slaawrp7
===============================================================================================
Layer (type:depth-idx)                        Output Shape              Param #
===============================================================================================
EncoderDecoderTransformer                     [16, 76, 5000]            --
├─SpeechEmbedding: 1-1                        [16, 1020, 256]           --
│    └─StackedBLSTMEmbedding: 2-1             [16, 1020, 256]           --
│    │    └─LSTM: 3-1                         [26374, 256]              215,040
│    │    └─MaxPool1d: 3-2                    [16, 256, 1020]           --
│    │    └─LSTM: 3-3                         [13182, 256]              395,264
│    │    └─MaxPool1d: 3-4                    [16, 256, 1020]           --
│    │    └─Linear: 3-5                       [16, 1020, 256]           65,792
│    │    └─Dropout: 3-6                      [16, 1020, 256]           --
├─PositionalEncoding: 1-2                     [16, 1020, 256]           --
├─Dropout: 1-3                                [16, 1020, 256]           --
├─ModuleList: 1-4                             --                        --
│    └─SelfAttentionEncoderLayer: 2-2         [16, 1020, 256]           --
│    │    └─SelfAttentionLayer: 3-7           [16, 1020, 256]           263,680
│    │    └─FeedForwardLayer: 3-8             [16, 1020, 256]           526,080
│    └─SelfAttentionEncoderLayer: 2-3         [16, 1020, 256]           --
│    │    └─SelfAttentionLayer: 3-9           [16, 1020, 256]           263,680
│    │    └─FeedForwardLayer: 3-10            [16, 1020, 256]           526,080
│    └─SelfAttentionEncoderLayer: 2-4         [16, 1020, 256]           --
│    │    └─SelfAttentionLayer: 3-11          [16, 1020, 256]           263,680
│    │    └─FeedForwardLayer: 3-12            [16, 1020, 256]           526,080
├─Sequential: 1-5                             [16, 1020, 5000]          --
│    └─LayerNorm: 2-5                         [16, 1020, 256]           512
│    └─Linear: 2-6                            [16, 1020, 5000]          1,285,000
│    └─LogSoftmax: 2-7                        [16, 1020, 5000]          --
├─Embedding: 1-6                              [16, 76, 256]             1,280,000
├─PositionalEncoding: 1-7                     [16, 76, 256]             --
├─Dropout: 1-8                                [16, 76, 256]             --
├─ModuleList: 1-9                             --                        --
│    └─CrossAttentionDecoderLayer: 2-8        [16, 76, 256]             --
│    │    └─SelfAttentionLayer: 3-13          [16, 76, 256]             263,680
│    │    └─CrossAttentionLayer: 3-14         [16, 76, 256]             263,680
│    │    └─FeedForwardLayer: 3-15            [16, 76, 256]             526,080
│    └─CrossAttentionDecoderLayer: 2-9        [16, 76, 256]             --
│    │    └─SelfAttentionLayer: 3-16          [16, 76, 256]             263,680
│    │    └─CrossAttentionLayer: 3-17         [16, 76, 256]             263,680
│    │    └─FeedForwardLayer: 3-18            [16, 76, 256]             526,080
│    └─CrossAttentionDecoderLayer: 2-10       [16, 76, 256]             --
│    │    └─SelfAttentionLayer: 3-19          [16, 76, 256]             263,680
│    │    └─CrossAttentionLayer: 3-20         [16, 76, 256]             263,680
│    │    └─FeedForwardLayer: 3-21            [16, 76, 256]             526,080
├─LayerNorm: 1-10                             [16, 76, 256]             512
├─Linear: 1-11                                [16, 76, 5000]            1,285,000
===============================================================================================
Total params: 10,056,720
Trainable params: 10,056,720
Non-trainable params: 0
Total mult-adds (Units.TERABYTES): 2.79
===============================================================================================
Input size (MB): 10.46
Forward/backward pass size (MB): 1615.94
Params size (MB): 30.75
Estimated Total Size (MB): 1657.15
===============================================================================================
===============================================================================================
Layer (type:depth-idx)                        Output Shape              Param #
===============================================================================================
EncoderDecoderTransformer                     [16, 76, 5000]            --
├─SpeechEmbedding: 1-1                        [16, 1020, 256]           --
│    └─StackedBLSTMEmbedding: 2-1             [16, 1020, 256]           --
│    │    └─LSTM: 3-1                         [26374, 256]              215,040
│    │    └─MaxPool1d: 3-2                    [16, 256, 1020]           --
│    │    └─LSTM: 3-3                         [13182, 256]              395,264
│    │    └─MaxPool1d: 3-4                    [16, 256, 1020]           --
│    │    └─Linear: 3-5                       [16, 1020, 256]           65,792
│    │    └─Dropout: 3-6                      [16, 1020, 256]           --
├─PositionalEncoding: 1-2                     [16, 1020, 256]           --
├─Dropout: 1-3                                [16, 1020, 256]           --
├─ModuleList: 1-4                             --                        --
│    └─SelfAttentionEncoderLayer: 2-2         [16, 1020, 256]           --
│    │    └─SelfAttentionLayer: 3-7           [16, 1020, 256]           263,680
│    │    └─FeedForwardLayer: 3-8             [16, 1020, 256]           526,080
│    └─SelfAttentionEncoderLayer: 2-3         [16, 1020, 256]           --
│    │    └─SelfAttentionLayer: 3-9           [16, 1020, 256]           263,680
│    │    └─FeedForwardLayer: 3-10            [16, 1020, 256]           526,080
│    └─SelfAttentionEncoderLayer: 2-4         [16, 1020, 256]           --
│    │    └─SelfAttentionLayer: 3-11          [16, 1020, 256]           263,680
│    │    └─FeedForwardLayer: 3-12            [16, 1020, 256]           526,080
├─Sequential: 1-5                             [16, 1020, 5000]          --
│    └─LayerNorm: 2-5                         [16, 1020, 256]           512
│    └─Linear: 2-6                            [16, 1020, 5000]          1,285,000
│    └─LogSoftmax: 2-7                        [16, 1020, 5000]          --
├─Embedding: 1-6                              [16, 76, 256]             1,280,000
├─PositionalEncoding: 1-7                     [16, 76, 256]             --
├─Dropout: 1-8                                [16, 76, 256]             --
├─ModuleList: 1-9                             --                        --
│    └─CrossAttentionDecoderLayer: 2-8        [16, 76, 256]             --
│    │    └─SelfAttentionLayer: 3-13          [16, 76, 256]             263,680
│    │    └─CrossAttentionLayer: 3-14         [16, 76, 256]             263,680
│    │    └─FeedForwardLayer: 3-15            [16, 76, 256]             526,080
│    └─CrossAttentionDecoderLayer: 2-9        [16, 76, 256]             --
│    │    └─SelfAttentionLayer: 3-16          [16, 76, 256]             263,680
│    │    └─CrossAttentionLayer: 3-17         [16, 76, 256]             263,680
│    │    └─FeedForwardLayer: 3-18            [16, 76, 256]             526,080
│    └─CrossAttentionDecoderLayer: 2-10       [16, 76, 256]             --
│    │    └─SelfAttentionLayer: 3-19          [16, 76, 256]             263,680
│    │    └─CrossAttentionLayer: 3-20         [16, 76, 256]             263,680
│    │    └─FeedForwardLayer: 3-21            [16, 76, 256]             526,080
├─LayerNorm: 1-10                             [16, 76, 256]             512
├─Linear: 1-11                                [16, 76, 5000]            1,285,000
===============================================================================================
Total params: 10,056,720
Trainable params: 10,056,720
Non-trainable params: 0
Total mult-adds (Units.TERABYTES): 2.79
===============================================================================================
Input size (MB): 10.46
Forward/backward pass size (MB): 1615.94
Params size (MB): 30.75
Estimated Total Size (MB): 1657.15
===============================================================================================
Using device: cuda
===============================================================================================
Layer (type:depth-idx)                        Output Shape              Param #
===============================================================================================
EncoderDecoderTransformer                     [16, 100, 5000]           --
├─SpeechEmbedding: 1-1                        [16, 500, 256]            --
│    └─StackedBLSTMEmbedding: 2-1             [16, 500, 256]            --
│    │    └─LSTM: 3-1                         [11780, 256]              215,040
│    │    └─MaxPool1d: 3-2                    [16, 256, 500]            --
│    │    └─LSTM: 3-3                         [5885, 256]               395,264
│    │    └─MaxPool1d: 3-4                    [16, 256, 500]            --
│    │    └─Linear: 3-5                       [16, 500, 256]            65,792
│    │    └─Dropout: 3-6                      [16, 500, 256]            --
├─PositionalEncoding: 1-2                     [16, 500, 256]            --
├─Dropout: 1-3                                [16, 500, 256]            --
├─ModuleList: 1-4                             --                        --
│    └─SelfAttentionEncoderLayer: 2-2         [16, 500, 256]            --
│    │    └─SelfAttentionLayer: 3-7           [16, 500, 256]            263,680
│    │    └─FeedForwardLayer: 3-8             [16, 500, 256]            526,080
│    └─SelfAttentionEncoderLayer: 2-3         [16, 500, 256]            --
│    │    └─SelfAttentionLayer: 3-9           [16, 500, 256]            263,680
│    │    └─FeedForwardLayer: 3-10            [16, 500, 256]            526,080
│    └─SelfAttentionEncoderLayer: 2-4         [16, 500, 256]            --
│    │    └─SelfAttentionLayer: 3-11          [16, 500, 256]            263,680
│    │    └─FeedForwardLayer: 3-12            [16, 500, 256]            526,080
├─Sequential: 1-5                             [16, 500, 5000]           --
│    └─LayerNorm: 2-5                         [16, 500, 256]            512
│    └─Linear: 2-6                            [16, 500, 5000]           1,285,000
│    └─LogSoftmax: 2-7                        [16, 500, 5000]           --
├─Embedding: 1-6                              [16, 100, 256]            1,280,000
├─PositionalEncoding: 1-7                     [16, 100, 256]            --
├─Dropout: 1-8                                [16, 100, 256]            --
├─ModuleList: 1-9                             --                        --
│    └─CrossAttentionDecoderLayer: 2-8        [16, 100, 256]            --
│    │    └─SelfAttentionLayer: 3-13          [16, 100, 256]            263,680
│    │    └─CrossAttentionLayer: 3-14         [16, 100, 256]            263,680
│    │    └─FeedForwardLayer: 3-15            [16, 100, 256]            526,080
│    └─CrossAttentionDecoderLayer: 2-9        [16, 100, 256]            --
│    │    └─SelfAttentionLayer: 3-16          [16, 100, 256]            263,680
│    │    └─CrossAttentionLayer: 3-17         [16, 100, 256]            263,680
│    │    └─FeedForwardLayer: 3-18            [16, 100, 256]            526,080
│    └─CrossAttentionDecoderLayer: 2-10       [16, 100, 256]            --
│    │    └─SelfAttentionLayer: 3-19          [16, 100, 256]            263,680
│    │    └─CrossAttentionLayer: 3-20         [16, 100, 256]            263,680
│    │    └─FeedForwardLayer: 3-21            [16, 100, 256]            526,080
├─LayerNorm: 1-10                             [16, 100, 256]            512
├─Linear: 1-11                                [16, 100, 5000]           1,285,000
===============================================================================================
Total params: 10,056,720
Trainable params: 10,056,720
Non-trainable params: 0
Total mult-adds (Units.TERABYTES): 1.24
===============================================================================================
Input size (MB): 5.13
Forward/backward pass size (MB): 882.21
Params size (MB): 30.75
Estimated Total Size (MB): 918.09
…
